…
 [0.48750976 0.45613775 0.52084142 ... 0.44348158 0.48337449 0.50101441]
 [0.48751005 0.45613799 0.52084173 ... 0.44348158 0.48337475 0.50101453]
 [0.48750986 0.45613781 0.52084149 ... 0.44348157 0.48337451 0.50101443]]
预训练耗时 : 1974.1151773929596
[1500, 1500, 1500, 1500, 1500] [540, 540, 540, 540, 540]
__________________________________________________________________________________________________
Layer (type)                    Output Shape         Param #     Connected to                     
==================================================================================================
inputs_01 (InputLayer)          (None, 103)          0                                            
__________________________________________________________________________________________________
inputs_02 (InputLayer)          (None, 3)            0                                            
__________________________________________________________________________________________________
rbm_10 (Dense)                  (None, 1500)         156000      inputs_01[0][0]                  
__________________________________________________________________________________________________
rbm_20 (Dense)                  (None, 540)          2160        inputs_02[0][0]                  
__________________________________________________________________________________________________
rbm_11 (Dense)                  (None, 1500)         2251500     rbm_10[0][0]                     
__________________________________________________________________________________________________
rbm_21 (Dense)                  (None, 540)          292140      rbm_20[0][0]                     
__________________________________________________________________________________________________
rbm_12 (Dense)                  (None, 1500)         2251500     rbm_11[0][0]                     
__________________________________________________________________________________________________
rbm_22 (Dense)                  (None, 540)          292140      rbm_21[0][0]                     
__________________________________________________________________________________________________
rbm_13 (Dense)                  (None, 1500)         2251500     rbm_12[0][0]                     
__________________________________________________________________________________________________
rbm_23 (Dense)                  (None, 540)          292140      rbm_22[0][0]                     
__________________________________________________________________________________________________
rbm_14 (Dense)                  (None, 1500)         2251500     rbm_13[0][0]                     
__________________________________________________________________________________________________
rbm_24 (Dense)                  (None, 540)          292140      rbm_23[0][0]                     
__________________________________________________________________________________________________
merge (Concatenate)             (None, 2040)         0           rbm_14[0][0]                     
                                                                 rbm_24[0][0]                     
__________________________________________________________________________________________________
output_1 (Dense)                (None, 20)           40820       merge[0][0]                      
__________________________________________________________________________________________________
output_2 (Dense)                (None, 7)            14287       merge[0][0]                      
==================================================================================================
Total params: 10,387,827
Trainable params: 10,387,827
Non-trainable params: 0
__________________________________________________________________________________________________
None
Train on 40000 samples, validate on 10000 samples
Epoch 1/800
 - 3s - loss: 2.9825 - output_1_loss: 2.8009 - output_2_loss: 1.8164 - output_1_acc: 0.0974 - output_2_acc: 0.2664 - val_loss: 2.7812 - val_output_1_loss: 2.6137 - val_output_2_loss: 1.6754 - val_output_1_acc: 0.1098 - val_output_2_acc: 0.3019
…
